10/08/2024 15:40:46 - INFO - __main__ - device: cuda
10/08/2024 15:40:48 - INFO - __main__ - encoder:
{'encoder': Sequential(
  (0): Linear(in_features=934, out_features=1536, bias=True)
  (1): SiLU()
  (2): Linear(in_features=1536, out_features=1024, bias=True)
  (3): SiLU()
  (4): Linear(in_features=1024, out_features=512, bias=True)
  (5): SiLU()
  (6): Linear(in_features=512, out_features=160, bias=True)
), 'z_mu': Linear(in_features=160, out_features=32, bias=True), 'z_logvar': Linear(in_features=160, out_features=32, bias=True)}
decoder:
{'decoder': Sequential(
  (0): Linear(in_features=390, out_features=3096, bias=True)
  (1): SiLU()
  (2): Linear(in_features=3096, out_features=2048, bias=True)
  (3): SiLU()
  (4): Linear(in_features=2048, out_features=1024, bias=True)
  (5): SiLU()
  (6): Linear(in_features=1024, out_features=69, bias=True)
), 'z_prior': Sequential(
  (0): Linear(in_features=358, out_features=1536, bias=True)
  (1): SiLU()
  (2): Linear(in_features=1536, out_features=1024, bias=True)
  (3): SiLU()
  (4): Linear(in_features=1024, out_features=512, bias=True)
  (5): SiLU()
), 'z_prior_mu': Linear(in_features=512, out_features=32, bias=True), 'z_prior_logvar': Linear(in_features=512, out_features=32, bias=True)}
